…
none-any.whl size=6955 sha256=2a27d1f22c295fa7af5290a64a78959accf975e9aa03dafb3b19f894ef4efe2a\n","  Stored in directory: /root/.cache/pip/wheels/fc/d3/e8/1ed6d9523b8480be97ccded9ecfed3413e84c73dae12bcc329\n","Successfully built modelsummary\n","Installing collected packages: modelsummary\n","Successfully installed modelsummary-1.1.7\n","-----------------------------------------------------------------------\n","             Layer (type)                Input Shape         Param #\n","=======================================================================\n","                 Conv2d-1          [-1, 3, 128, 128]           3,584\n","            BatchNorm2d-2        [-1, 128, 128, 128]             256\n","                   ReLU-3        [-1, 128, 128, 128]               0\n","                 Conv2d-4        [-1, 128, 128, 128]         147,584\n","            BatchNorm2d-5        [-1, 128, 128, 128]             256\n","                   ReLU-6        [-1, 128, 128, 128]               0\n","                 Conv2d-7        [-1, 128, 128, 128]         147,584\n","            BatchNorm2d-8        [-1, 128, 128, 128]             256\n","                   ReLU-9        [-1, 128, 128, 128]               0\n","             MaxPool2d-10        [-1, 128, 128, 128]               0\n","                Conv2d-11          [-1, 128, 64, 64]         147,584\n","           BatchNorm2d-12          [-1, 128, 64, 64]             256\n","                  ReLU-13          [-1, 128, 64, 64]               0\n","                Conv2d-14          [-1, 128, 64, 64]         147,584\n","           BatchNorm2d-15          [-1, 128, 64, 64]             256\n","                  ReLU-16          [-1, 128, 64, 64]               0\n","                Conv2d-17          [-1, 128, 64, 64]         147,584\n","           BatchNorm2d-18          [-1, 128, 64, 64]             256\n","                  ReLU-19          [-1, 128, 64, 64]               0\n","             MaxPool2d-20          [-1, 128, 64, 64]               0\n","                Conv2d-21          [-1, 128, 32, 32]         295,168\n","           BatchNorm2d-22          [-1, 256, 32, 32]             512\n","                  ReLU-23          [-1, 256, 32, 32]               0\n","                Conv2d-24          [-1, 256, 32, 32]         590,080\n","           BatchNorm2d-25          [-1, 256, 32, 32]             512\n","                  ReLU-26          [-1, 256, 32, 32]               0\n","                Conv2d-27          [-1, 256, 32, 32]         590,080\n","           BatchNorm2d-28          [-1, 256, 32, 32]             512\n","                  ReLU-29          [-1, 256, 32, 32]               0\n","             MaxPool2d-30          [-1, 256, 32, 32]               0\n","                Conv2d-31          [-1, 256, 16, 16]       1,180,160\n","           BatchNorm2d-32          [-1, 512, 16, 16]           1,024\n","                  ReLU-33          [-1, 512, 16, 16]               0\n","             MaxPool2d-34          [-1, 512, 16, 16]               0\n","                Conv2d-35            [-1, 512, 8, 8]       2,359,808\n","           BatchNorm2d-36            [-1, 512, 8, 8]           1,024\n","                  ReLU-37            [-1, 512, 8, 8]               0\n","             MaxPool2d-38            [-1, 512, 8, 8]               0\n","                Linear-39                 [-1, 8192]       8,389,632\n","                  ReLU-40                 [-1, 1024]               0\n","               Dropout-41                 [-1, 1024]               0\n","                Linear-42                 [-1, 1024]          11,275\n","=======================================================================\n","Total params: 14,162,827\n","Trainable params: 14,162,827\n","Non-trainable params: 0\n","-----------------------------------------------------------------------\n"],"name":"stdout"}]},{"cell_type":"markdown","metadata":{"id":"R3F-Q0n4-_sh","colab_type":"text"},"source":["## Dataset definition and creation"]},{"cell_t
…
